…
s - loss: 0.0847 - accuracy: 0.9691563/563 [==============================] - 243s 431ms/step - loss: 0.0847 - accuracy: 0.9691 - val_loss: 0.2347 - val_accuracy: 0.9340
Model: "model"
__________________________________________________________________________________________________
Layer (type)                    Output Shape         Param #     Connected to                     
==================================================================================================
input_1 (InputLayer)            [(None, 100, 150, 3) 0                                            
__________________________________________________________________________________________________
batch_normalization (BatchNorma (None, 100, 150, 3)  12          input_1[0][0]                    
__________________________________________________________________________________________________
conv2d (Conv2D)                 (None, 100, 150, 32) 2432        batch_normalization[0][0]        
__________________________________________________________________________________________________
batch_normalization_1 (BatchNor (None, 100, 150, 32) 128         conv2d[0][0]                     
__________________________________________________________________________________________________
re_lu (ReLU)                    (None, 100, 150, 32) 0           batch_normalization_1[0][0]      
__________________________________________________________________________________________________
batch_normalization_2 (BatchNor (None, 100, 150, 32) 128         re_lu[0][0]                      
__________________________________________________________________________________________________
re_lu_1 (ReLU)                  (None, 100, 150, 32) 0           batch_normalization_2[0][0]      
__________________________________________________________________________________________________
conv2d_1 (Conv2D)               (None, 50, 75, 32)   9248        re_lu_1[0][0]                    
__________________________________________________________________________________________________
batch_normalization_3 (BatchNor (None, 50, 75, 32)   128         conv2d_1[0][0]                   
__________________________________________________________________________________________________
re_lu_2 (ReLU)                  (None, 50, 75, 32)   0           batch_normalization_3[0][0]      
__________________________________________________________________________________________________
conv2d_2 (Conv2D)               (None, 50, 75, 32)   9248        re_lu_2[0][0]                    
__________________________________________________________________________________________________
conv2d_4 (Conv2D)               (None, 50, 75, 32)   9248        re_lu[0][0]                      
__________________________________________________________________________________________________
conv2d_3 (Conv2D)               (None, 50, 75, 1)    33          conv2d_2[0][0]                   
__________________________________________________________________________________________________
add (Add)                       (None, 50, 75, 32)   0           conv2d_4[0][0]                   
                                                                 conv2d_3[0][0]                   
__________________________________________________________________________________________________
batch_normalization_4 (BatchNor (None, 50, 75, 32)   128         add[0][0]                        
__________________________________________________________________________________________________
re_lu_3 (ReLU)                  (None, 50, 75, 32)   0           batch_normalization_4[0][0]      
__________________________________________________________________________________________________
conv2d_5 (Conv2D)               (None, 25, 38, 64)   18496       re_lu_3[0][0]                    
__________________________________________________________________________________________________
batch_normalization_5 (BatchNor (None, 25, 38, 64)   256         conv2d_5[0][0]                   
__________________________________________________________________________________________________
re_lu_4 (ReLU)                  (None, 25, 38, 64)   0           batch_normalization_5[0][0]      
__________________________________________________________________________________________________
conv2d_6 (Conv2D)               (None, 25, 38, 64)   36928       re_lu_4[0][0]                    
__________________________________________________________________________________________________
conv2d_8 (Conv2D)               (None, 25, 38, 64)   18496       add[0][0]                        
__________________________________________________________________________________________________
conv2d_7 (Conv2D)               (None, 25, 38, 1)    65          conv2d_6[0][0]                   
__________________________________________________________________________________________________
add_1 (Add)                     (None, 25, 38, 64)   0           conv2d_8[0][0]                   
                                                                 conv2d_7[0][0]                   
__________________________________________________________________________________________________
batch_normalization_6 (BatchNor (None, 25, 38, 64)   256         add_1[0][0]                      
__________________________________________________________________________________________________
re_lu_5 (ReLU)                  (None, 25, 38, 64)   0           batch_normalization_6[0][0]      
__________________________________________________________________________________________________
conv2d_9 (Conv2D)               (None, 13, 19, 128)  73856       re_lu_5[0][0]                    
__________________________________________________________________________________________________
batch_normalization_7 (BatchNor (None, 13, 19, 128)  512         conv2d_9[0][0]                   
__________________________________________________________________________________________________
re_lu_6 (ReLU)                  (None, 13, 19, 128)  0           batch_normalization_7[0][0]      
__________________________________________________________________________________________________
conv2d_10 (Conv2D)              (None, 13, 19, 128)  147584      re_lu_6[0][0]                    
__________________________________________________________________________________________________
conv2d_12 (Conv2D)              (None, 13, 19, 128)  73856       add_1[0][0]                      
__________________________________________________________________________________________________
conv2d_11 (Conv2D)              (None, 13, 19, 1)    129         conv2d_10[0][0]                  
__________________________________________________________________________________________________
add_2 (Add)                     (None, 13, 19, 128)  0           conv2d_12[0][0]                  
                                                                 conv2d_11[0][0]                  
__________________________________________________________________________________________________
re_lu_7 (ReLU)                  (None, 13, 19, 128)  0           add_2[0][0]                      
__________________________________________________________________________________________________
flatten (Flatten)               (None, 31616)        0           re_lu_7[0][0]                    
__________________________________________________________________________________________________
dense (Dense)                   (None, 16)           505872      flatten[0][0]                    
__________________________________________________________________________________________________
re_lu_8 (ReLU)                  (None, 16)           0           dense[0][0]                      
__________________________________________________________________________________________________
dense_1 (Dense)                 (None, 3)            51          re_lu_8[0][0]                    
==================================================================================================
Total params: 907,090
Trainable params: 906,316
Non-trainable params: 774
__________________________________________________________________________________________________
None
Evaluating model on test dataset

Test data, accuracy: 92.81%
Finding predicted classes and probabilities to build confusion matrix
…
